cuda
----------------------------------------------------------------
        Layer (type)               Output Shape         Param #
================================================================
            Conv2d-1           [-1, 32, 32, 32]             864
       BatchNorm2d-2           [-1, 32, 32, 32]              64
              ReLU-3           [-1, 32, 32, 32]               0
            Conv2d-4           [-1, 32, 32, 32]             288
            Conv2d-5           [-1, 32, 32, 32]           1,024
       BatchNorm2d-6           [-1, 32, 32, 32]              64
              ReLU-7           [-1, 32, 32, 32]               0
            Conv2d-8           [-1, 32, 16, 16]             288
            Conv2d-9           [-1, 64, 16, 16]           2,048
      BatchNorm2d-10           [-1, 64, 16, 16]             128
             ReLU-11           [-1, 64, 16, 16]               0
           Conv2d-12           [-1, 64, 16, 16]             576
           Conv2d-13           [-1, 64, 16, 16]           4,096
      BatchNorm2d-14           [-1, 64, 16, 16]             128
             ReLU-15           [-1, 64, 16, 16]               0
           Conv2d-16             [-1, 64, 8, 8]             576
           Conv2d-17            [-1, 128, 8, 8]           8,192
      BatchNorm2d-18            [-1, 128, 8, 8]             256
             ReLU-19            [-1, 128, 8, 8]               0
           Conv2d-20            [-1, 128, 8, 8]           1,152
           Conv2d-21            [-1, 128, 8, 8]          16,384
      BatchNorm2d-22            [-1, 128, 8, 8]             256
             ReLU-23            [-1, 128, 8, 8]               0
           Conv2d-24            [-1, 128, 4, 4]           1,152
           Conv2d-25            [-1, 192, 4, 4]          24,576
      BatchNorm2d-26            [-1, 192, 4, 4]             384
             ReLU-27            [-1, 192, 4, 4]               0
           Conv2d-28            [-1, 192, 4, 4]           1,728
           Conv2d-29            [-1, 192, 4, 4]          36,864
      BatchNorm2d-30            [-1, 192, 4, 4]             384
             ReLU-31            [-1, 192, 4, 4]               0
           Conv2d-32            [-1, 192, 4, 4]           1,728
           Conv2d-33            [-1, 256, 4, 4]          49,152
      BatchNorm2d-34            [-1, 256, 4, 4]             512
             ReLU-35            [-1, 256, 4, 4]               0
AdaptiveAvgPool2d-36            [-1, 256, 1, 1]               0
           Conv2d-37             [-1, 10, 1, 1]           2,570
================================================================
Total params: 155,434
Trainable params: 155,434
Non-trainable params: 0
----------------------------------------------------------------
Input size (MB): 0.01
Forward/backward pass size (MB): 3.46
Params size (MB): 0.59
Estimated Total Size (MB): 4.06
----------------------------------------------------------------